Capstone-AI-Model/firewall_model.pth (torch, 13704 bytes, 4 tensors)

encoder.weight f4 [64, 22]
00000000: 00c6 bcbd 12bf 953c d0bf adbd 1ece fa3d
00000010: 3265 213e 845b 373e e9ce b9bc b797 883d
00000020: 7e38 473c f5a1 55bd 63fe a2bc e99a 513e
00000030: 11d6 4d3e 1380 5ebc afa8 44bd 89bb 1cbe
00000040: 3b4f 473e 679a 4a3e 2c85 28be 2783 30be
00000050: a0d3 6c3d d88e 243e 364c caba 7f73 f1bd
00000060: 110a b8ba eb22 db3c 98bd 52bd b0b5 253e
00000070: 4c06 df3d 9911 43be 9971 4d3e c309 f03d
00000080: 3923 ba3d b7aa 24bd 62fa b0bc e216 193d
00000090: dcb2 303e 8c78 0c3e a083 03be 82da 173e
000000a0: 040f 2e3d 89be b33d 16d4 42be cb9f dcbd
000000b0: cc60 1f3e 73a3 4e3e 5e8a 5e3d 49e6 a9bc
000000c0: 4483 fc3d 5d2a ed3d e81e de3d 9b8e 4a3e
000000d0: 462f 4c3e 5bce 61be d4b2 1fbe 548b f3bd
000000e0: 18b0 76bd b4c9 30be 330a 153e 2dc1 6e3d
000000f0: d08d 26be c2b0 7c3c 2376 d53d 2dea b7bc
00000100: 7f6b 1d3e 54c1 b2bd 8dcc fcbd bf93 fcbd
00000110: b084 4e3e b6ab 00be fe66 343e 44e6 403e
00000120: b222 013d d388 493e 816a 063d ed42 24bd
00000130: 4996 473e d605 0dbe 50f1 58bd 6101 7f3d
00000140: dce0 993d 3553 d7bd 05ce bb3c 7fb4 13be
00000150: 420c 153c ab19 743d 6aff abbd 4616 813d
00000160: d067 883d 6d80 563e 56b6 48be 0274 c6bd
00000170: d0d3 1f3e 1011 8b3c 1ed7 e3bd 03e2 e43d
00000180: 0c00 08bd b8a7 aabd e146 42be 112f 2abd
00000190: c48b 503e cc49 0abe 0ad1 00be 9922 c73b
000001a0: bcdc c23b f6cd ddbb 3542 c73c dc18 19bd
000001b0: ade5 463e 12ab 2a3e 091e 36be b17e 4f3d
000001c0: 6c30 6e3c 9bb2 f7bc 7626 863d 9e00 9cbb
000001d0: 8707 243e 3cb5 abbc e76d 373e fbab d53d
000001e0: f441 0fbe 715f b03d 324c 3d3e dc87 1fbe
000001f0: 6052 f6bd acd4 a33c 7ea9 2dbe 6f59 90bd
00000200: 21c4 4fbe 4e55 f43d 1304 4e3c 939d dd3d
00000210: eea6 babd 4f66 b63d ab05 a0bd 798a f8bd
00000220: 7cff f6bd 99c4 26be 32d1 f13d d0c8 f7bd
00000230: 7ac9 bcbc ea45 53be 210e ab3d 3c02 e73d
00000240: 964a 7b3b b035 26bb 8575 50be 16fa 1bba
00000250: 4348 09bc e9f1 bf3d 069e 3c3d 5a5d f6bd
00000260: eae1 3cbe 2ce8 e43d 1577 143e e10c ccbc
00000270: 105d 3d3d c607 893d 530a e7bd 9b08 a23d
00000280: 832d 06be a05f 5cbd 90a9 f03d 81b1 03be
00000290: d4fc 883c 7798 e03d c700 18bd 6dec 1bbe
000002a0: dec9 1abe 5f49 843c f829 debc 0d04 5c3e
000002b0: 2da0 08be 0d76 44be 2572 35be ddfd e9bd
000002c0: 8ff9 28be 1e9a 24be 8691 a73b 6b8d 263e
000002d0: 412b a5bd b892 e43d 4512 febc 281a ce3d
000002e0: 44e7 b53c 38c6 32be f7a5 32bd 2294 243e
000002f0: 4ec6 3a3d 0d0e b93d fed6 223e 8837 3fbe
00000300: 7f7d f23d 57da f7bd 40a6 4bbd 15cd 1d3e
00000310: 1e4f c23d 027f 33be bd95 c03c 2cc4 1bbe
00000320: 162e 873d b7f8 1e3e d1a9 133d 8130 33be
00000330: 29f1 913c c5a0 a43c f0b9 8f3d 4e8c 1f3d
00000340: 1244 2cbe 7110 a63d b63b f13d 9231 0e3e
00000350: a243 d13d 0a80 a2bd b068 95bd a64c 773d
00000360: fdf9 9d3d 0ba7 3f3d 1ce3 76bd 38c1 063e
00000370: 590d 683d c53c 98bd 91c9 4f3e 918f 533e
00000380: 45c8 563e 0dee e2bd f088 a2bd 353a 043e
00000390: a012 f9bd 0f99 23bd def9 86bd 9862 493e
000003a0: 6877 db3d 7b23 083e 2e19 f43d 19a9 c1bc
000003b0: f646 3dbe bf7c f33a a475 fcbd b4d3 b5bc
000003c0: d625 b23d 337d 2a3d e115 e23d 7172 cd3c
000003d0: e743 05bd ea7f 593e 12bf adbc c586 743d
000003e0: 4684 82bb 8035 213e 925c 143e b99d c5bd
000003f0: 4930 273e fe7f ca3d 9279 29be 8537 553e
-0.09217453 0.018279586 -0.08483851 0.12246345 0.15761259 0.17906004 -0.02268167 0.06669562
0.012159465 -0.052156407 -0.019896692 0.2046925 0.20101191 -0.01358034 -0.04801243 -0.15305914
0.19463818 0.19785462 -0.16457051 -0.1723753 0.05781901 0.16070116 -0.001543409 -0.11789607
-0.0014041086 0.026750049 -0.051450342 0.1618259 0.10889873 -0.19049682 0.20062865 0.11720612
0.090887494 -0.04020187 -0.021603767 0.03737534 0.1725573 0.1371786 -0.1284318 0.14829448
0.04249479 0.08776576 -0.19026217 -0.107726656 0.15564269 0.20179538 0.054331176 -0.020739691
0.123297244 0.11580346 0.10845739 0.19780962 0.19939908 -0.22051375 -0.15595561 -0.11891809
-0.06022653 -0.17264444 0.14554672 0.058289696 -0.16265035 0.015423002 0.104229234 -0.02245053
0.15373038 -0.08728281 -0.123437025 -0.12332868 0.20167804 -0.12565503 0.17617413 0.1883784
0.03152723 0.196811 0.032816414 -0.040102888 0.19490923 -0.13771757 -0.05296451 0.062257174
0.07513592 -0.10513917 0.022925386 -0.14424323 0.009097161 0.05959479 -0.08398326 0.063030764
0.06660426 0.20947428 -0.19600806 -0.096900955 0.15608144 0.01697591 -0.11125015 0.11175921
-0.03320317 -0.08332771 -0.1897235 -0.041548792 0.20365816 -0.13504714 -0.12579742 0.0060771224
0.0059467237 -0.006768937 0.024323562 -0.037377223 0.19423552 0.1666682 -0.17784895 0.05065793
0.014537912 -0.030236533 0.065503046 -0.0047608158 0.16018496 -0.020960443 0.17913018 0.10433193
-0.13990003 0.08611954 0.18486097 -0.1557917 -0.120274305 0.01999887 -0.16959187 -0.07048308
-0.20289661 0.11930333 0.012574214 0.108210705 -0.091138706 0.089062326 -0.07813581 -0.121357866
-0.120604485 -0.16285934 0.11807479 -0.12098849 -0.02304529 -0.20632139 0.08352304 0.11279723
0.0038344017 -0.002536159 -0.2035733 -0.00059500465 -0.008379045 0.093723126 0.04604914 -0.12029524
-0.18445554 0.11177096 0.14498551 -0.024908485 0.04623133 0.06690936 -0.11281266 0.079117976
-0.13103299 -0.053802133 0.117510915 -0.12860681 0.01672212 0.1096658 -0.037110116 -0.15226908
-0.15116069 0.016148267 -0.027119622 0.2148592 -0.13342352 -0.19185658 -0.17719324 -0.11425374
-0.16501449 -0.16074416 0.0051137833 0.16264884 -0.08064891 0.11160797 -0.031014571 0.10063583
0.022205003 -0.17458427 -0.043615308 0.16072133 0.045599274 0.09035883 0.15902326 -0.18673527
0.11840343 -0.12102192 -0.049719095 0.15410264 0.09487747 -0.17528918 0.0235089 -0.15211552
0.06600587 0.15524565 0.03605062 -0.17498972 0.01781519 0.020096192 0.07017887 0.038952164
-0.16822842 0.08108605 0.11778967 0.13886097 0.10217978 -0.07934578 -0.07295358 0.060375832
0.07713697 0.046790164 -0.060275182 0.13159645 0.056653354 -0.07433466 0.20291735 0.20660235
0.20974834 -0.11080561 -0.07936275 0.12912829 -0.121617556 -0.03994089 -0.06590627 0.19666517
0.10716134 0.13294785 0.11918865 -0.023640202 -0.184841 0.0018576606 -0.12327126 -0.022195674
0.08698623 0.041623306 0.11039329 0.025078984 -0.03253546 0.21240202 -0.021209273 0.05969884
-0.0039830534 0.15743065 0.14488438 -0.09649224 0.16327013 0.09887694 -0.16550282 0.2082196

encoder.bias f4 [64]
00000000: 2601 a13d 6122 ff3d f038 3bbe a7aa 073d
00000010: 8145 4bbe c6ba febd 0617 23be 9862 053e
00000020: cf44 20be d4b5 853d 1631 3e3d 9f49 433e
00000030: 376c 763c e498 b4bb d046 a3bd a042 033d
00000040: 1b99 163e 7a89 b6bc a30d ae3d 6d1e 45be
00000050: 1ca4 c8bd 0b8b a73d 6354 bb3d 275c f53d
00000060: f372 453e 0c44 42be f5ad 423e 5770 133d
00000070: beab 703d 2dcf 0b3e 88e2 133e 12c9 203e
00000080: 0d37 26be 4133 86bd e4bc 18bc 929a 38be
00000090: 91e6 e53d dde0 bb3d d4a0 183d 68ff 19be
000000a0: 9ff7 2cbe e8cb 933d f731 503e defd aebd
000000b0: df45 bdbd f0a0 93bd 539b 193e 3ee6 8e3c
000000c0: c125 32bd eed3 c1bc 976a 213e 4e22 533e
000000d0: 3822 d3bd 5523 243e d932 a7bd 5836 663d
000000e0: d092 e73d cc13 d23d 5100 0ebe ae8f 84bd
000000f0: c628 dbbd 0024 873d cc20 d2bd 81cb adbd
0.07861547 0.12457729 -0.18283439 0.03312173 -0.19850732 -0.12437968 -0.15926751 0.13025892
-0.15651248 0.065288216 0.04643353 0.19071053 0.015040449 -0.00551139 -0.07972491 0.03204596
0.14706843 -0.02228235 0.08498695 -0.19249888 -0.097969264 0.08180817 0.09146955 0.11980467
0.19282131 -0.1897127 0.19011672 0.035995807 0.058757536 0.1365325 0.14441884 0.15701702
-0.16231938 -0.06552745 -0.009322379 -0.18027714 0.11225618 0.09173749 0.037262753 -0.15038836
-0.16891335 0.072166264 0.2033156 -0.08544515 -0.092418425 -0.07208431 0.15000658 0.017443772
-0.043493036 -0.023660626 0.15763317 0.20618555 -0.10309261 0.16029103 -0.08163995 0.05620417
0.11307299 0.10257682 -0.13867308 -0.06472717 -0.10701136 0.06598663 -0.10260162 -0.08486081

decoder.weight f4 [22, 64]
00000000: fab6 c9bd 081e c2bd ae9a bb3d 8529 90bc
00000010: bbf6 533c da10 14bd ad22 edbc 20b1 8b3d
00000020: c90e adbd fdb6 f13d 44d4 0abd e756 c63d
00000030: b777 3a3d c3db cb3c 5e15 48bd b837 cd3d
00000040: 8677 e83d 9855 b1bd 88d5 d1bd 7b81 b6bd
00000050: b389 043d 79e9 adbd d505 cdbd fd0a 04be
00000060: dc2a a3bd a366 fa3d f96c c9bd 40fd e039
00000070: 8885 913c 107e b2bd eb5f 933d d772 173d
00000080: 19e4 e8bd c8c9 503d 5266 cc3c 031e 6fbd
00000090: 7763 cc3d 114c 043e ef4b a9bc 76f9 933d
000000a0: 04bb 80bd 4e56 c63d e505 bbbd 3989 02bd
000000b0: e238 58bc 4803 dc3c 2aee e0bc b445 133d
000000c0: 6960 413d 7d9a debc 0f84 733c 78c3 5f3c
000000d0: 5e50 94bd 1ab1 86bc 40e4 b4bd 933a 853d
000000e0: d9d6 233c 957a 9c3d 218c 9b3d 7815 d93d
000000f0: 80e1 a63d f7ae ab3d 16f3 bebc 0f3b 47bd
00000100: ff21 ea3d 5501 b2bc 3bbd 78bd 06c3 a33d
00000110: 2de5 c7bc cf30 a43d 8a19 543d 398b eb3d
00000120: 6887 293d c4bc 97bd 89c5 a3bc 8863 ba3d
00000130: b921 e53d 8de2 d6bd 474d 763c e3e5 73bc
00000140: 9cf4 3bbd 9060 963d 693a bdbc 9cc1 91bd
00000150: 6e2c 21bd 1196 9ebd c264 82bd 8680 7a3b
00000160: 3200 ebbc 2e1f 5abd bf50 04be b6e5 a03d
00000170: 6e04 a6bd 7216 b13d 5d47 be3d ce11 8d3d
00000180: 9b6f 4ebd bc0d a23d 14e4 49bd 7c17 763d
00000190: 678e efbd b656 b13d f0a1 bf3d fddf 6cbd
000001a0: 50a6 f9bc e1de 70bd 1115 1fbd 7bce e03d
000001b0: 590d cb3d 1a7e f13d c279 ebbd 179d b2bd
000001c0: 0724 e7bd b6b6 a3bd c6e9 2d3d b35e ca3d
000001d0: f1ba a0bd 30bd d63c 9dd6 8e3d b520 b83d
000001e0: 6314 013e 8149 edbb c85b bbbd 05fb c9bd
000001f0: 07bc a9bd 2b0b a33d 8e02 0cbb dcaf 3bbd
00000200: e68f dcbc 32f3 833d 961a a0bd 650a 65bd
00000210: 795b e43c 621f bfbd 9d1b 79bd 2abc 843d
00000220: a6b5 813d 2e53 f6bc a562 023e 13bb 4dbd
00000230: 81c8 5a3d 7c32 98bc 002f cdbd 450f 8cbc
00000240: 2c61 473d 645a 77bd 014e 79bc 7356 c33d
00000250: 9ada 1abd 327f 093b d06c 063e 8652 2b3c
00000260: d99f c7bd e800 073e 26ad a5bd 08c0 303b
00000270: 9913 cd3c 99bb 92bd 4434 c6bd 4260 5c3d
00000280: fc34 823d b9c8 8e3d 74df 6c3b fa05 e93d
00000290: f767 b5bc 9421 ccbc 1d45 02be 6a68 b53d
000002a0: 7d20 82bd 6f82 aa3c 9867 b63d 387b 523d
000002b0: 3214 f73c 73cb debd e4fb 543d 1245 e1bd
000002c0: 968d b73c 2af0 073d 40c4 ef3d 9d41 583d
000002d0: 26ad 493d 16d8 fbbd 9cc5 7c3c 5e30 e03d
000002e0: debe b7bd dc32 a13d cf9b b63c 17c1 bcbd
000002f0: a8da 833d 2479 0abb e478 8dbd 76ab 80ba
00000300: 7379 003e b8c5 27bd 2594 853d e5f6 83bd
00000310: 8bf1 d1bd f66c 693d 2352 223d 465a b13d
00000320: 24b9 f2bd 5879 56bd 484b e83d b3e3 f23d
00000330: d4b8 e6bd 5652 133d cce9 b5bd b41a 973d
00000340: 1022 e13d 0dbd 0dbc 1bb0 9e3d 80b3 6a3d
00000350: 96e7 f1bd ba51 493d 5663 0a3d 9784 7bbc
00000360: b92e 88bd 20c9 a03d 3270 9dbd 2511 1f3d
00000370: cc39 f73c 6527 a8bd 66a9 efbd 218d 9c3d
00000380: 6a1d e3bd fd33 873c 3697 9b3d a4a7 42bd
00000390: bf9e 913d 93f2 2b3d b1b4 183d 97c7 85bd
000003a0: ea29 edbc 2ee4 2b3d ad9a 88bd 18ee 1fbc
000003b0: 2e80 c0bb acb2 713d 7a53 f6bb 6413 30bd
000003c0: 8d99 f8bc 871c 1abc b647 953d 8591 eb3d
000003d0: b9be febb 8eb2 c53d 93f4 ed3d dad2 adbd
000003e0: 75cd 9fbd 12b7 cd3c 2310 a3bd b110 06be
000003f0: 54c0 c13a 06f5 c73c 9442 ae3d 27a1 c83c
-0.09849353 -0.09478384 0.09160362 -0.017597923 0.012937243 -0.036148883 -0.028947199 0.06820893
-0.08450086 0.1180248 -0.03389384 0.09684544 0.045524325 0.024885064 -0.048848502 0.10020393
0.11350922 -0.08658904 -0.10245806 -0.08911415 0.032357883 -0.08491797 -0.10010878 -0.12894817
-0.07967159 0.12226608 -0.09835238 0.00042913295 0.017763868 -0.08715451 0.07196029 0.036974754
-0.11371631 0.050973684 0.024951134 -0.05837823 0.09979909 0.12919642 -0.02066609 0.07225315
-0.062856704 0.0968443 -0.09131984 -0.031869147 -0.013197156 0.026857033 -0.027457315 0.035955146
0.047211085 -0.027173275 0.014863028 0.013657443 -0.07241891 -0.01644187 -0.08832598 0.06505313
0.009999954 0.07640568 0.07595087 0.10599798 0.081484795 0.08382981 -0.023309272 -0.048640307
0.114322655 -0.02172915 -0.06072734 0.07996182 -0.024401272 0.08017122 0.05178217 0.11501164
0.0413889 -0.07409051 -0.019991653 0.09101015 0.11188073 -0.1049243 0.015033073 -0.014886352
-0.045887575 0.073426366 -0.023099141 -0.07117006 -0.039349012 -0.07743467 -0.06366874 0.0038223579
-0.028686617 -0.05325239 -0.12921427 0.07856314 -0.08106314 0.08646859 0.09290955 0.068881616
-0.050399404 0.07912776 -0.049289778 0.06008099 -0.11697083 0.08659117 0.09357059 -0.0578308
-0.030474812 -0.058806304 -0.03883845 0.10976883 0.09914655 0.1179163 -0.11497833 -0.08721369
-0.112861685 -0.07993834 0.04245927 0.09881344 -0.07848156 0.026213259 0.06974528 0.08990613
0.12605433 -0.0072414284 -0.09148365 -0.09862331 -0.082878165 0.079611145 -0.0021363827 -0.04582201
-0.026924085 0.0644287 -0.07817571 -0.055918116 0.027875649 -0.09332158 -0.06081735 0.06481202
0.06333475 -0.03006896 0.12732942 -0.050227236 0.05341387 -0.01857876 -0.1001873 -0.017097125
0.048676655 -0.060388938 -0.0152163515 0.09537973 -0.03780613 0.0020980355 0.13127446 0.010456687
-0.097472854 0.1318394 -0.08089666 0.0026969928 0.025033759 -0.07164688 -0.096779376 0.053802736
0.06357762 0.069718786 0.003614393 0.11378093 -0.0221443 -0.024918355 -0.12721677 0.08857806
-0.06353853 0.020814149 0.08906478 0.05138704 0.030160997 -0.108786486 0.051998034 -0.10999502
0.02240638 0.033188023 0.117073536 0.05279695 0.049237393 -0.122970745 0.015427973 0.10946725
-0.08971952 0.07871029 0.022291092 -0.092165165 0.0643819 -0.0021129334 -0.06907824 -0.0009816724
0.12546329 -0.040960044 0.06522397 -0.06443576 -0.10251149 0.05698868 0.039629113 0.086597964
-0.11851719 -0.052361816 0.11342484 0.118598364 -0.11265722 0.035967194 -0.08882484 0.0737814
0.10992825 -0.00865103 0.07748433 0.05730009 -0.1181175 0.049150206 0.03378614 -0.015351436
-0.06649537 0.078508615 -0.07687415 0.03883471 0.030178927 -0.08210639 -0.11702232 0.07644106
-0.11089595 0.016504282 0.075972006 -0.047523156 0.071103565 0.041979384 0.037281696 -0.06532209
-0.02895065 0.041965656 -0.06670127 -0.009761356 -0.005874655 0.059008285 -0.0075172754 -0.042987242
-0.030346656 -0.0094062155 0.072890684 0.11502365 -0.0077742008 0.09653197 0.116189145 -0.08487482
-0.0780286 0.025111709 -0.07962062 -0.13092305 0.001478205 0.024408828 0.085087925 0.024490906

decoder.bias f4 [22]
00000000: bbf8 41bd 033a 30bd 64cf a83d 094a 243d
00000010: cf1b 29bd 5ba1 973d a71f 56bc 50eb 913b
00000020: 638c d1bc 176a 9a3d 11d6 733d 8d81 afbd
00000030: 0482 213d f757 413d b45a 083e cd62 19bd
00000040: d28d 023e 25cf 3a3d 5407 29bb fc33 e13d
00000050: 9e4a 893d 5f31 b53c
-0.04735635 -0.043024074 0.082426816 0.040109668 -0.041286286 0.07403823 -0.01306907 0.0044531003
-0.025579637 0.07539766 0.05953032 -0.08569632 0.039430633 0.04720303 0.1331585 -0.03744774
0.12749413 0.045607705 -0.0025791721 0.10996243 0.06703685 0.022118269
